Cgan4StrategyFinetune/d_model.pkl (torch, 53711 bytes, 3 tensors)

weight f4 [50, 253]
-9.1994915 0.7181932 -0.946517 1.9631559 -0.856938 1.3489189 -1.4343361 -1.7575301
-0.13105577 -0.4689564 -1.0892718 -0.9546484 0.6284373 0.39437383 0.63092583 -0.7501222
2.6461885 0.031485498 -2.2206118 2.087372 -2.927717 -1.8617433 -0.06817957 0.35118484
-1.8877742 -0.6068438 1.0716867 0.75815356 1.8312418 1.6553254 1.4715445 0.11960484
-0.5222989 -0.37791055 -0.8625057 -0.8305413 -1.3134638 1.270496 -1.1471316 1.317884
0.34343344 -0.5061706 1.9916743 -1.5789311 0.13125582 -1.0718135 0.4673412 1.1570446
-1.2503157 -0.5361919 -0.9391406 -0.2997298 -0.5014295 -0.5697245 -0.5564562 0.49199307
1.320814 -0.93220013 0.015228569 -0.42714947 0.33609453 -0.1006657 0.27099314 -1.9306315
-1.0358521 -0.56454474 0.10065665 -1.274607 -0.92795616 0.92756975 0.5230387 -1.1800362
1.785327 -1.7073859 0.9122826 1.0300063 -0.7170301 -0.040269505 -2.763225 0.9887802
-0.9033655 -2.7958977 -0.1694268 -1.4855672 0.7560763 0.08029241 0.2906451 -0.9920414
1.8956306 -0.9999616 0.83598393 -0.44933003 -0.7139797 -1.6313107 -2.4818704 -1.1403828
-0.64117146 -1.2720479 -0.7814548 -0.73328155 0.76459855 -1.5607282 1.9270654 1.3144639
-0.5673446 -0.38514444 -1.4759355 -0.7288278 -1.678469 -1.2489796 -0.21631502 -0.6063933
-0.96268094 1.035344 -2.2920501 1.283501 1.2684842 -0.12506045 -0.36287883 0.041957047
-0.5073234 -1.3038038 -0.7171474 0.5611548 -0.14694373 -0.4193184 0.24690151 -0.8907209
-1.0819435 -1.1200969 -0.35193485 -0.8399333 -2.3056786 1.2678982 -1.1361158 -1.0509398
-1.85211 1.4975445 -0.073238075 -1.4092095 0.43494394 0.015075009 1.1515822 -1.3649842
-0.3618387 -0.8148116 -1.238385 1.6508828 0.10730987 -0.57832086 0.115223184 1.3521472
-0.10584837 0.7868557 -0.30683026 1.4300821 1.6490734 -0.058737513 -0.8703294 -0.053242367
1.9437735 -1.9026622 -0.35334787 -1.7318383 -0.10719963 1.4498924 -0.9182634 -0.38259146
-0.82333976 0.7425972 -1.7942228 -0.5982722 1.2146311 -3.309887 -0.14571393 -1.4794732
-1.5758318 -1.8050284 -2.19366 -0.9417102 0.8593875 -0.12054786 -1.0222564 -1.453515
-3.006212 0.5802142 0.49109048 -0.3142523 0.91952264 0.07207596 -1.3688276 0.5208666
-0.082614645 0.14933126 -0.68083894 -1.6042067 -0.4879739 -0.7885438 -0.99840975 -0.6292466
-0.6119225 0.20572954 -2.6762185 -0.7172312 -2.3215914 -1.2447363 0.9081083 -0.7410453
-1.8268315 -1.6255971 -0.3396839 1.0036986 -0.7077905 0.2675877 -1.7195625 0.4915309
1.4176651 1.9162862 1.0137107 -2.3999867 -0.9918667 0.07740341 3.0796874 -1.0943906
1.3959922 -1.0404549 2.435332 0.19195427 -1.7337966 -0.8921845 -1.1983392 0.24205619
0.7618543 -1.134773 1.2152715 -0.6525832 1.6332587 0.91823596 -1.7543194 1.2321662
0.3005913 1.1928227 0.7636953 -0.77594984 1.7539351 1.0688509 -1.5478863 -0.12998012
0.06600282 0.3918798 -0.7085116 1.9687743 -0.9309585 -7.8566995 -2.1994991 0.85140955
00000000: 1e31 13c1 82db 373f f04e 72bf b148 fb3f
00000010: 4a60 5bbf 60a9 ac3f 5398 b7bf bff6 e0bf
00000020: 7c33 06be 0e1b f0be 426d 8bbf d663 74bf
00000030: 44e1 203f 5eeb c93e 5b84 213f 0208 40bf
00000040: 275b 2940 f0f6 003d 811e 0ec0 8197 0540
00000050: b75f 3bc0 9b4d eebf bba1 8bbd 80ce b33e
00000060: 96a2 f1bf 1e5a 1bbf 082d 893f 5a16 423f
00000070: 2266 ea3f b4e1 d33f 925b bc3f 62f3 f43d
00000080: 61b5 05bf 7e7d c1be 2ccd 5cbf 5b9e 54bf
00000090: 951f a8bf 9d9f a23f 35d5 92bf 6cb0 a83f
000000a0: 82d6 af3e 6594 01bf 2fef fe3f 6a1a cabf
000000b0: ed67 063e 2f31 89bf 5947 ef3e 0a1a 943f
000000c0: 580a a0bf df43 09bf 856b 70bf 2f76 99be
000000d0: af5d 00bf 77d9 11bf ea73 0ebf 84e6 fb3e
000000e0: 6f10 a93f aba4 6ebf 3f81 793c 56b3 dabe
000000f0: 9514 ac3e d229 cebd 9dbf 8a3e ef1e f7bf
00000100: cd96 84bf 0186 10bf 1325 ce3d 5226 a3bf
00000110: 898e 6dbf 3675 6d3f dde5 053f 6d0b 97bf
00000120: 9885 e43f 9f8b dabf 5a8b 693f 3fd7 833f
00000130: 498f 37bf a3f1 24bd aed8 30c0 b320 7d3f
00000140: f642 67bf fdef 32c0 387e 2dbe 1127 bebf
00000150: 378e 413f 5970 a43d 6fcf 943e 6df6 7dbf
00000160: 06a4 f23f 7cfd 7fbf 0b03 563f 960e e6be
00000170: 60c7 36bf cace d0bf f7d6 1ec0 10f8 91bf
00000180: d023 24bf 77d2 a2bf 6c0d 48bf 57b8 3bbf
00000190: bbbc 433f f1c5 c7bf 14aa f63f 5a40 a83f
000001a0: 7f3d 11bf a731 c5be 74eb bcbf 7594 3abf
000001b0: 12d8 d6bf 90de 9fbf af81 5dbe 973c 1bbf
000001c0: 4272 76bf 2786 843f f3b0 12c0 c349 a43f
000001d0: b15d a23f d90f 00be 41cb b9be 27db 2b3d
000001e0: f2df 01bf 0be3 a6bf f996 37bf d7a7 0f3f
000001f0: 6b78 16be e7b0 d6be c0d3 7c3e 4906 64bf
00000200: 207d 8abf 565f 8fbf ce30 b4be de05 57bf
00000210: 3d90 13c0 7d4a a23f 3e6c 91bf 3285 86bf
00000220: f111 edbf 8aaf bf3f d8fd 95bd fa60 b4bf
00000230: f9b0 de3e 2cfd 763c 0c67 933f cdb7 aebf
00000240: ec42 b9be 7e97 50bf 6683 9ebf 2150 d33f
00000250: 47c5 db3d d60c 14bf 22fa eb3d 2913 ad3f
00000260: 08c7 d8bd 606f 493f db18 9dbe ee0c b73f
00000270: d614 d33f bf96 70bd e8cd 5ebf ab14 5abd
00000280: 92cd f83f 6f8a f3bf 03ea b4be e1ac ddbf
00000290: 7b8b dbbd 1396 b93f 4f13 6bbf 07e3 c3be
000002a0: 65c6 52bf da1a 3e3f 18a9 e5bf 5e28 19bf
000002b0: 0879 9b3f 30d5 53c0 0836 15be 615f bdbf
000002c0: dbb4 c9bf 2c0b e7bf ed64 0cc0 eb13 71bf
000002d0: d200 5c3f cce1 f6bd 4cd9 82bf c80c babf
000002e0: c765 40c0 eb88 143f 3670 fb3e ade5 a0be
000002f0: d665 6b3f 909c 933d be35 afbf 8357 053f
00000300: de31 a9bd 4bea 183e 764b 2ebf a556 cdbf
00000310: b7d7 f9be 02de 49bf c897 7fbf 4e16 21bf
00000320: f4a6 1cbf c4aa 523e 2a47 2bc0 779c 37bf
00000330: f494 14c0 8553 9fbf c979 683f 25b5 3dbf
00000340: 9dd5 e9bf 9113 d0bf 0ceb adbe 3279 803f
00000350: c231 35bf 4101 893e a01a dcbf f0a9 fb3e
00000360: 0d76 b53f de48 f53f 46c1 813f 6299 19c0
00000370: faea 7dbf ae85 9e3d 9919 4540 fe14 8cbf
00000380: dfaf b23f a02d 85bf 7bdc 1b40 a98f 443e
00000390: 0ced ddbf 3466 64bf 2e63 99bf 94dd 773e
000003a0: e208 433f 3e40 91bf 048e 9b3f b10f 27bf
000003b0: 9f0e d13f 8311 6b3f 8a8d e0bf 9fb7 9d3f
000003c0: 1ae7 993e 6aae 983f 8981 433f a6a4 46bf
000003d0: f280 e03f 1bd0 883f 2321 c6bf 8219 05be
000003e0: 7d2c 873d 78a4 c83e 0461 35bf cc00 fc3f
000003f0: 4c53 6ebf 156a fbc0 98c4 0cc0 faf5 593f

bias f4 [50]
-0.43427202 -0.254959 -0.46793368 -0.08116832 -0.33990142 -0.25762728 -0.35506988 -0.277987
-0.5075782 -0.2968361 -0.043068733 -0.05859242 -0.36345136 -0.46991128 -0.05686076 -0.4927549
-0.40105316 -0.40207857 -0.35194644 -0.31906646 -0.2809366 -0.20583539 -0.38492516 -0.4737174
-0.41667342 -0.14986694 -0.05106329 -0.3204005 -0.3220204 -0.3422485 -0.17149723 -0.046809606
-0.28477997 -0.43263835 -0.056926057 -0.30138543 -0.36629826 -0.37600645 -0.4981794 0.282749
-0.14309168 -0.4193412 -0.16843161 -0.32337856 -0.4082628 -0.35287684 -0.32063675 -0.060422234
-0.040935215 -0.32207432
00000000: e758 debe fc89 82be 0195 efbe 933b a6bd
00000010: 8f07 aebe b9e7 83be b8cb b5be 5054 8ebe
00000020: a5f0 01bf e7fa 97be d768 30bd 9bfe 6fbd
00000030: 4c16 babe 3698 f0be d4e6 68bd 5f4a fcbe
00000040: d756 cdbe 3edd cdbe 5332 b4be ae5c a3be
00000050: ecd6 8fbe 83c6 52be e914 c5be 168b f2be
00000060: 3856 d5be b876 19be be27 51bd 890b a4be
00000070: dcdf a4be 323b afbe f89c 2fbe 6ebb 3fbd
00000080: aece 91be c682 ddbe 4c2b 69bd 314f 9abe
00000090: 728b bbbe eb83 c0be 5f11 ffbe 7ac4 903e
000000a0: a086 12be e4b3 d6be 5679 2cbe e091 a5be
000000b0: d207 d1be 46ac b4be 802a a4be 4e7d 77bd
000000c0: afab 27bd ede6 a4be

weight f4 [1, 50]
-39.510757 -27.49935 -34.903427 20.307583 -30.257166 -25.229855 -29.003277 -25.149504
-48.03691 -23.041168 -0.13179882 -0.08794404 -33.762424 27.780153 0.124543905 -51.35087
-33.186653 28.89772 -34.108677 -29.568419 -24.728546 20.104572 -37.12658 23.88664
-36.386875 19.01365 0.120698325 -31.304544 -24.980999 22.454765 1.0199699 0.0686585
23.133352 -39.358414 0.076018654 -26.85493 -36.28507 -34.786934 -48.13218 9.006976
18.930481 -39.14957 19.07351 -30.316492 -36.08197 -31.00449 -26.057848 -0.029266573
-0.11976185 20.79412
00000000: 040b 1ec2 abfe dbc1 1c9d 0bc2 ee75 a241
00000010: ad0e f2c1 bed6 c9c1 b606 e8c1 2f32 c9c1
00000020: cc25 40c2 5054 b8c1 45f6 06be 011c b4bd
00000030: b90c 07c2 c13d de41 e010 ff3d 4a67 4dc2
00000040: 22bf 04c2 882e e741 496f 08c2 1f8c ecc1
00000050: 10d4 c5c1 2ad6 a041 9e81 14c2 d717 bf41
00000060: 298c 11c2 f51b 9841 af30 f73d b56f fac1
00000070: 16d9 c7c1 5ca3 b341 608e 823f d49c 8c3d
00000080: 1b11 b941 046f 1dc2 abaf 9b3d e6d6 d6c1
00000090: e923 11c2 d225 0bc2 5a87 40c2 931c 1041
000000a0: a071 9741 2999 1cc2 8c96 9841 2d88 f2c1
000000b0: f053 10c2 3209 f8c1 7976 d0c1 74c0 efbc
000000c0: b345 f5bd 5c5a a641
