Cgan4StrategyFinetune/g_model.pkl (torch, 103823 bytes, 3 tensors)

weight f4 [50, 504]
0	0x3dd62f7f	0.10458278
1	0x3ce85c7f	0.028364418
2	0xbd4cbb58	-0.049983352
3	0xb9cde6d7	-0.00039272636
4	0xbd047e70	-0.032347143
5	0x3c350810	0.0110492855
6	0xbd8d07e7	-0.06886273
7	0xbc6759e7	-0.0141205555
8	0xbdf9b332	-0.12192382
9	0xbcd474a0	-0.025934517
10	0x3ce0f8b0	0.027462333
11	0x3d7bab75	0.06144281
12	0xbd9586b7	-0.073010854
13	0x3c264892	0.010149138
14	0x3cbef13a	0.023308385
15	0xbdbe2ab4	-0.09285489
16	0xbd18a8d0	-0.037270367
17	0xbdba2911	-0.09089864
18	0x3db32d6f	0.087489
19	0xbd0a866b	-0.033819597
20	0x3e1271e5	0.1430126
21	0x3d22e3a5	0.03976788
22	0xbd711657	-0.058859196
23	0x3d5b0ba8	0.053477913
24	0xbc2a197d	-0.010382053
25	0xbd791e0e	-0.060819678
26	0x3c8a1d3b	0.016859641
27	0xbd1e1d2c	-0.03860204
28	0x3d942d5d	0.07235215
29	0x3d9ba951	0.07600654
30	0x3cc707e1	0.02429575
31	0x3cc0bcaf	0.023527471
32	0xbcaaef00	-0.020865917
33	0x3e1c315b	0.15253203
34	0xbd6f4e9f	-0.05842459
35	0xbd14d8b4	-0.036339477
36	0xbd13f7bf	-0.03612494
37	0xbd3883c0	-0.04504752
38	0xbdc8533e	-0.09781502
39	0xbce80ee1	-0.028327407
40	0x3cc62397	0.024186892
41	0xbe475057	-0.19464241
42	0xbd240b7e	-0.040050022
43	0x3a0f73ae	0.00054722547
44	0xbd1f3898	-0.03887233
45	0xbc6aa805	-0.014322286
46	0x3c7e01a9	0.0155033255
47	0x3dd7544a	0.10514124
48	0xbd98f1a2	-0.07467963
49	0xbd3f0b74	-0.046641782
50	0xbd52563e	-0.05135178
51	0x3d77e2ae	0.060518913
52	0x3d959fc9	0.07305867
53	0x3d83c89b	0.06434747
54	0xbcb5aa91	-0.022176059
55	0x3d4da376	0.050204717
56	0x3c528e77	0.012851349
57	0x3d3e0433	0.046390723
58	0xbd33298c	-0.043740794
59	0xbdc53d9f	-0.09630894
60	0x3ca3d9e5	0.020001361
61	0x3cfb14bd	0.030649537
62	0xbde7dab4	-0.11321011
63	0x3d0dc603	0.034612667
64	0x3d8cdd75	0.06878177
65	0xbd54d626	-0.05196204
66	0x3db9539b	0.090491496
67	0xbdcf6a79	-0.1012773
68	0x3d1a7272	0.0377068
69	0x3cc8aeee	0.024497475
70	0xbb4e167f	-0.0031446514
71	0x3d2c064b	0.04199819
72	0xbdbd2445	-0.092354335
73	0x3d900d42	0.07033779
74	0xbd9fa04c	-0.07794246
75	0xbd8a94e9	-0.067666836
76	0xbbcb289b	-0.006199909
77	0xbabda854	-0.0014469721
78	0x3e0a0ea7	0.13482152
79	0xbd7e09d5	-0.062021095
80	0xbd851e28	-0.064998925
81	0x3cb737c6	0.022365462
82	0x3d3323a0	0.043735147
83	0x3b0e8b3b	0.0021750468
84	0x3ac61bf5	0.0015114533
85	0x3dfc0be7	0.12306958
86	0xbd3897c4	-0.04506661
87	0xbd235760	-0.03987825
88	0xbdbb30cb	-0.09140166
89	0x3ddaf910	0.10692036
90	0x3da2a939	0.07942433
91	0x3e0969c9	0.1341926
92	0x3cab7482	0.020929579
93	0xbd7c18cc	-0.061547086
94	0x3dad4358	0.084601104
95	0xbdb025e5	-0.08600978
96	0x3d90c9f0	0.070697665
97	0x3cd74de1	0.026282253
98	0xbd89a379	-0.06720633
99	0x3c8db3ed	0.01729771
100	0xbcda65d9	-0.026659893
101	0x3d358561	0.044316653
102	0x3d5c4a0b	0.05378155
103	0x3db2e439	0.08734936
104	0x3d8224d7	0.06354683
105	0xbbc4d832	-0.006007218
106	0x3c1b4bc2	0.009478511
107	0xbc9dbc01	-0.019254686
108	0xbd9d9b24	-0.07695606
109	0xbdc00f38	-0.09377903
110	0xbd352e00	-0.044233322
111	0xbb981545	-0.0046412074
112	0xbcfbeb57	-0.030751867
113	0xbd9615d9	-0.07328386
114	0xbc85ed5f	-0.016348539
115	0x3a34a0bd	0.0006890407
116	0x3b352c8d	0.0027644963
117	0xbc940b89	-0.018071907
118	0xbd3b8a77	-0.045786347
119	0x3bcfe77a	0.006344733
120	0xbd4ee05f	-0.050506946
121	0xbd357b1c	-0.04430686
122	0x3de59901	0.11210824
123	0x3ceb4c10	0.028722793
124	0xbce2d3c8	-0.027688876
125	0x3d6ba0df	0.057526466
126	0x3d13a731	0.036048118
127	0xbdc9deeb	-0.09856971
128	0x3d1fb972	0.038995214
129	0x3d429853	0.04750855
130	0x3d15fa41	0.036615614
131	0xbd85de55	-0.06536547
132	0xbcc6b6bc	-0.024257056
133	0x3de6a365	0.11261634
134	0x3d6f11b7	0.058366504
135	0x3cd9c1c1	0.026581647
136	0xbd07dc62	-0.033169158
137	0xbbea8241	-0.0071566408
138	0x3d0b7f0c	0.03405671
139	0xbde494da	-0.11161204
140	0x3cebdb8c	0.028791212
141	0x3d25ca0b	0.040475886
142	0xbd0c05f2	-0.034185357
143	0xbca4de51	-0.02012554
144	0x3a8ad7db	0.0010592894
145	0xbdaa6851	-0.08320678
146	0x3e024caf	0.12724565
147	0xbc33ccca	-0.0109741185
148	0x3e44ae97	0.19207226
149	0xbc4b22c9	-0.01239843
150	0x3c879d83	0.0165546
151	0xbdb16acc	-0.08662948
152	0x3e043980	0.1291256
153	0xbaddded1	-0.0016927366
154	0xbda7f180	-0.08200359
155	0x3d56a97f	0.052407738
156	0xbdab787e	-0.083725914
157	0x3d388e2c	0.04505746
158	0x3db54455	0.08850924
159	0x3db934e3	0.090432905
160	0x3d6d434e	0.057925515
161	0x3db40a3e	0.08791016
162	0xbdb7df9e	-0.089781985
163	0x3b76d3c4	0.0037662843
164	0xbd99601b	-0.07489034
165	0x3d1b7478	0.03795287
166	0xbc067271	-0.008205996
167	0xbd02747e	-0.031849377
168	0xbddfdcf5	-0.10930816
169	0xbd047d9d	-0.032346357
170	0xbc1de39d	-0.009636787
171	0xbd1162c6	-0.03549459
172	0xbcbf5af5	-0.023358801
173	0x3db9e195	0.090762295
174	0x3d399e2b	0.045316856
175	0x3db54c8a	0.08852489
176	0x3d4b1758	0.04958281
177	0x3dca5991	0.09880365
178	0xbcabe4f2	-0.020983193
179	0xbe12a654	-0.14321262
180	0xbd87c4ca	-0.066293314
181	0x3e18d49a	0.14924851
182	0xbb576ba0	-0.0032870546
183	0xbc4e73d1	-0.012600855
184	0x3d8476c8	0.06467968
185	0x3dbc9272	0.0920762
186	0xbbe07c9a	-0.006850791
187	0x3df110c1	0.11770774
188	0x3b14a103	0.0022678978
189	0x3e098c1b	0.13432352
190	0xbcbba27c	-0.022904627
191	0x3d8c40ae	0.06848274
192	0x3cc4ff53	0.02404753
193	0xbbf041df	-0.007332071
194	0x3df89fea	0.12139876
195	0xbd3e8c83	-0.04652072
196	0x3d03af42	0.03214956
197	0x3de55323	0.11197498
198	0xbd2812c4	-0.04103352
199	0x3df262d0	0.11835253
200	0xbd7b06d4	-0.06128581
201	0xbcaeac89	-0.021322506
202	0xbd7f838f	-0.062381323
203	0x3ced6fe8	0.028984025
204	0x3c653501	0.013989688
205	0xbd5889d2	-0.05286581
206	0x3d42a004	0.047515884
207	0xbd1cfc22	-0.03832639
208	0xbdc1fe47	-0.09472328
209	0x3af0c574	0.0018369392
210	0xbba99800	-0.0051755905
211	0x3c9361b7	0.01799093
212	0xbd52178b	-0.051291984
213	0x3c2a52da	0.01039573
214	0xbd970bd3	-0.07375302
215	0x3ccaf5d9	0.024775432
216	0xbdf9cf59	-0.121977516
217	0xbce57bce	-0.028013136
218	0x3d400cb4	0.046887115
219	0xbdb075ef	-0.08616244
220	0xbccc5c4e	-0.024946358
221	0xbdd82424	-0.10553768
222	0xbd8f4d4c	-0.06997165
223	0xbcb73f30	-0.022368997
224	0x3d04e160	0.032441497
225	0xbd4e5437	-0.050373282
226	0xbd5ecaff	-0.05439281
227	0x3ce80676	0.028323393
228	0xbd024dcd	-0.031812478
229	0x3c75b90f	0.014997735
230	0xbd9d8dbc	-0.07693049
231	0x3d88f81c	0.06687948
232	0x3d71fd88	0.059079677
233	0xbdbe9dca	-0.093074396
234	0xbd89b796	-0.06724469
235	0x3d66f39a	0.05638466
236	0x3cd1c656	0.02560727
237	0x3b8355de	0.004008039
238	0x3d2f0cee	0.04273694
239	0x3d4ed60b	0.050497096
240	0x3bba96f6	0.0056942655
241	0xbcd5adce	-0.026083853
242	0xbc6e1d52	-0.014533358
243	0xbd4c1ec0	-0.049834013
244	0xbcbfd4df	-0.023416935
245	0x3bf4a443	0.0074658706
246	0xbd03f632	-0.032217212
247	0xbdc7416a	-0.097292736
248	0x3c93c6e3	0.018039173
249	0xbd272322	-0.04080499
250	0xbc88dc0f	-0.016706495
251	0x3cc8f5c4	0.024531253
252	0x3e8b5f95	0.2722136
253	0xbf5edd85	-0.8705676
254	0xbf5ae9ed	-0.8551319
255	0x3ebdedf5	0.3709561

bias f4 [50]
0	0xc08a6c75	-4.3257394
1	0xc08f8a0b	-4.485601
2	0xbf39a02a	-0.72510016
3	0xc085625c	-4.1682568
4	0xc06ed9de	-3.7320476
5	0x3f41613d	0.75539
6	0xbf2b7eac	-0.6699016
7	0xbefc5376	-0.49282426
8	0xc0862b1f	-4.192764
9	0xc08a6bf4	-4.325678
10	0xc09045d2	-4.508523
11	0xc092d042	-4.587922
12	0xc08cf023	-4.4043136
13	0xc0831f77	-4.097591
14	0xc08578d8	-4.1710014
15	0xc093d536	-4.6197767
16	0xc091720e	-4.5451727
17	0xc0837d1b	-4.1090217
18	0xc08f2d8c	-4.47431
19	0xc0843c3e	-4.132354
20	0xc09055a3	-4.5104537
21	0xc092543b	-4.572782
22	0xc08ed1ae	-4.4630957
23	0xbf6203f9	-0.8828731
24	0xc08ec964	-4.462084
25	0xbf12f45e	-0.57404125
26	0xc0947fd8	-4.640606
27	0xc09442a4	-4.633135
28	0xc086d2ce	-4.213233
29	0xbf431e3c	-0.7621801
30	0xbf2fbf21	-0.68651015
31	0xc088074d	-4.250891
32	0xc08690e7	-4.2051883
33	0xc09014c1	-4.5025334
34	0xc083c0d5	-4.117289
35	0xbf3c4aa6	-0.73551404
36	0xc08ae5a0	-4.3405304
37	0xc08be966	-4.372241
38	0xbef68e3d	-0.48155394
39	0xbf3c575d	-0.73570806
40	0xc090247d	-4.504454
41	0xc08ff470	-4.4985886
42	0xc09194d7	-4.549419
43	0xbf2aabe6	-0.66668546
44	0xc0912dc7	-4.536838
45	0xc083f630	-4.123802
46	0xc0939e69	-4.613087
47	0xbf14364c	-0.5789535
48	0xc0888cc6	-4.2671843
49	0xc0932ff7	-4.599605

weight f4 [1, 50]
0	0xbc008f27	-0.00784663
1	0x3c0d01af	0.008606358
2	0xbd1da767	-0.038489725
3	0x3a7ccb4a	0.00096433295
4	0x3c813a2c	0.015774809
5	0x3c8fb418	0.01754193
6	0xbd0715e4	-0.03297986
7	0x3d126ea2	0.03575004
8	0xbc3701ab	-0.011169831
9	0x3c964c1a	0.018346835
10	0xbc314747	-0.0108202165
11	0xba8d7c13	-0.0010794423
12	0x3c14c747	0.009080715
13	0x3bc72e3b	0.006078509
14	0x3a70818e	0.00091745786
15	0x3a937293	0.0011249356
16	0x3c2e8349	0.010651418
17	0xbc689a40	-0.014196932
18	0x394ef97d	0.00019738633
19	0xbcab76b6	-0.02093063
20	0xbc21c111	-0.009872691
21	0x3ba66be0	0.0050787777
22	0xbc97176b	-0.018443784
23	0x3d0a2bc4	0.033733144
24	0x3ac1a613	0.0014774225
25	0x3d015653	0.031576466
26	0xbb04de1f	-0.0020273996
27	0xbcf5225a	-0.029923607
28	0x3bcb3346	0.0062011806
29	0xbd2e5197	-0.04255828
30	0xbd2f1015	-0.042739946
31	0xb93bda58	-0.00017915049
32	0x3c0a7f0c	0.008453142
33	0xbbe5d668	-0.0070140846
34	0x3cc1aa50	0.023640782
35	0x3d07e274	0.033174947
36	0x3abe8372	0.0014535023
37	0x3b1bd449	0.0023777655
38	0x3d0be44b	0.034153264
39	0xbd008715	-0.031378824
40	0x3c00fa5b	0.007872189
41	0x3c3e3cdf	0.0116111925
42	0x3c0aad0b	0.008464108
43	0x3d1229f7	0.035684552
44	0x3b679d64	0.0035341615
45	0xbb53c1f4	-0.003231165
46	0x3c16188a	0.009161124
47	0xbcc825bc	-0.024432056
48	0x3c19967d	0.009374258
49	0x3c3a9afd	0.011389491
