Enhancing Time-Series Momentum Strategies Using Deep Neural Networks/model.pt (torch_old, 3305 bytes, 5 tensors)

lstm.weight_ih_l0 f4 [20, 21]
00000000: 79f3 bf3e 63a8 e73e 8a62 07be e1b0 ec3d
00000010: 8c68 5ebe a8ed 213d 2410 4abe 8459 48be
00000020: 750a 74be 5525 ee3d 815c f63d a3f5 e43e
00000030: e4ea 0fbe df2b 143d eb20 d53d e89c 38be
00000040: ec7c 913d 2dc7 883a 6f1f 8fbe 5354 8ebe
00000050: ffb4 2d3e 02d6 263f b708 1f3f 6f8f 4f3e
00000060: a1e3 6e3e 6b19 8bbc be34 5b3e 4b3b b9be
00000070: cf22 143f 803e e9be 39c7 b03e 0fca 05bf
00000080: e5ec 88be 1a15 03bf a980 483f 7837 fabd
00000090: a322 62be f943 85be fffa 363e e188 113e
000000a0: dd0b 1bbe 1274 81be 4f5b bbbc 0256 33be
000000b0: e635 0dbf 31b3 3b3e c2a3 993e 0c5d b4be
000000c0: 70d3 1c3e f530 12be a02e 59bb 8aee 153c
000000d0: 9d40 17be f835 f13e f526 363f afde bdbe
000000e0: 275b 69bd 6f1f 2c3d 38ec d8be e72c 553e
000000f0: 64dd 213e 3309 2fbe 6ab6 9fbe 39aa 003e
00000100: 34b1 f53d 7176 30bf 61d1 853e 7d2b 993a
00000110: 0cbb 89bd 189d 11be 25ea 243f 4cb4 80be
00000120: f3c0 403e 22cf 74be f14a f4be 8c01 d1be
00000130: da5a cd3d ce3c 28be 6ba9 57bd 7b65 303d
00000140: 3a69 563e cb2e fb3c 876d e9bb 4393 d4be
00000150: 7c1c c83e d10e 573e 0dcf d3bc cce1 ac3e
00000160: fafc 383e 52b1 a23e d979 d73d 2b91 513d
00000170: 028b ca3b 9860 dd3e d5f0 fc3e 620d 3f3f
00000180: 319f f3be 9aeb 583e 0023 0c3e 94b2 a83e
00000190: e8f5 aebd e994 91be 08c8 253f 8fd9 efbe
000001a0: 4777 453e 82d0 92bd 1441 d4be 7140 033e
000001b0: 7e7e 433d 8044 96be fe2d 8cbd 8219 193e
000001c0: 5b44 243e d4e4 e73e c55b 69be 618d f5bc
000001d0: 3ff2 1b3f 88d2 0b3e f076 fabe 57e3 a5be
000001e0: 7df0 cfbe 6835 953d 08b7 483e 7a16 abbd
000001f0: 15aa 563e 439d c23e 56fa 2a3f 3a89 0dbf
00000200: f999 52be 8d7a 13bf 77ce a83d 3380 61be
00000210: 8c4f 973d 667e 203e 6317 833e eff5 083e
00000220: 812f 7ebe 255d 04be 51ad 443e 55d9 953e
00000230: 3c9a 123f 4d80 c3bd 9cc7 a0bd 844d 0ebe
00000240: dd7e 383e f7ae 233e f2fb 643f c680 28bf
00000250: f50e d1bd 9c10 063f 4f82 b6be 794f 953c
00000260: abf6 713e 2023 2bbe 1dc3 c1be 800d 913e
00000270: 5210 44bf 6961 7d3e aa46 08be 1cba d0bc
00000280: 729f a1bf c5cf 813e 2bbc 8bbd d65a 49be
00000290: aacf cf3e 779c cf3e 0f62 063f 829d 9c3d
000002a0: 9a37 bd3e 4ec1 29be 458d 993e 055e 4bbe
000002b0: e09b 4a3c 9312 bebe 6742 2fbb 6d46 8cbe
000002c0: 392c 033d 5239 b0be 06fb b43d a5d2 7fbe
000002d0: c3d2 903e 4a62 2f3e d55c c43e 4930 8d3e
000002e0: 2e5c 8b3e fc4e 8dbe c343 933d 9a5b 7c3e
000002f0: 0ed7 a93e 0876 3e3e 9fb8 21bf 7a5f 9b3d
00000300: ae49 89be 78e7 703e c48d e8bd ae48 1dbe
00000310: ae2c 923e 14a7 803c a965 283f baa4 a63d
00000320: 1ac2 08bf c634 41bf 7a5f 15bf 7309 32bf
00000330: 8304 d33d 72cf 14be 9bbc 7a3d 0362 1bbf
00000340: f0c6 053f 822c b3be 3d8d 933f 82c5 7fbe
00000350: e78f f1be 7ec0 6bbf 4f93 0c3e 2534 6bbf
00000360: 6daa a9ba 406c 29bd c04b 47be 3538 9a3d
00000370: 4951 843d 5599 f3bc 674e 35be fd66 233e
00000380: fd84 2d3e 7233 04bd 3ecc 54be f3ab 213e
00000390: 571a c13d 6ad9 343e 4ac6 44be 4d98 ba3f
000003a0: 9ce1 d0be aa39 04bf 532c 4abf 8039 86bd
000003b0: 9957 04bf 5e23 41be a6df 91bc 7dff 13bc
000003c0: 2e43 be3d ec10 fe3c 29a8 2a3d 153f 333d
000003d0: 2fdb c23d 3cab 743e d20e d4bd 8080 5b3e
000003e0: 2ef3 85bd 0cef 40bd 2383 b9bc 00c0 4abe
000003f0: 2101 aa3f a1c1 96be eb2d e2be d26b 5ebf
0.37490442 0.45245656 -0.13221183 0.115571745 -0.21719569 0.039533287 -0.1973272 -0.19565398
-0.23832114 0.11628214 0.120293625 0.44718656 -0.14054447 0.03617465 0.10406669 -0.18028605
0.07103905 0.0010435336 -0.2795367 -0.2779871 0.16963576 0.651703 0.6212267 0.2026956
0.23329021 -0.016979894 0.21406838 -0.3617805 0.57865614 -0.45555496 0.34526995 -0.5226144
-0.26743236 -0.51204073 0.7832132 -0.12217611 -0.22083525 -0.26028422 0.17869185 0.14212371
-0.15141244 -0.25283867 -0.022870688 -0.17513278 -0.5516037 0.18330075 0.3000775 -0.3522724
0.15315032 -0.14276488 -0.0033139363 0.00915111 -0.14770742 0.47111487 0.71153194 -0.37083957
-0.056971695 0.042022165 -0.4236772 0.2081791 0.1580711 -0.17093353 -0.31193858 0.12564935
0.119966894 -0.6893073 0.26136306 0.0011685934 -0.067251295 -0.14220083 0.64419776 -0.25137556
0.18823604 -0.2390714 -0.47713426 -0.40821493 0.10027094 -0.16429445 -0.052651804 0.04306553
0.20938578 0.030661961 -0.0071236524 -0.41518602 0.39084232 0.21001746 -0.025855565 0.3376602
0.18065253 0.3177591 0.105212875 0.051163834 0.006181122 0.43237758 0.4940249 0.74629796
-0.4758239 0.21183625 0.13685226 0.32948744 -0.08542997 -0.28433922 0.6475835 -0.46845672
0.19283782 -0.07168676 -0.414559 0.12817551 0.047728054 -0.29349136 -0.0684471 0.14951137
0.160417 0.4529177 -0.22788914 -0.029974641 0.60916513 0.1365453 -0.48918867 -0.3240001
-0.40613165 0.07285577 0.19601071 -0.083538964 0.20963319 0.38010606 0.6678823 -0.55287516
-0.20566548 -0.5760887 0.08242505 -0.2202156 0.07388219 0.15673217 0.2560378 0.13375066
-0.24822809 -0.12926157 0.1920674 0.29267374 0.5726659 -0.09545956 -0.078505725 -0.13896757
0.18017145 0.15984713 0.8944694 -0.6582149 -0.10207931 0.52369094 -0.35646293 0.018226372
0.23629253 -0.16712618 -0.37844172 0.28330612 -0.765874 0.2474419 -0.13308206 -0.025479369
-1.2626784 0.25353828 -0.068229996 -0.19663557 0.40588123 0.4054906 0.52493376 0.0764723
0.36956483 -0.16577646 0.29990593 -0.19860084 0.012366265 -0.37123546 -0.002674246 -0.2739748
0.032024596 -0.34418732 0.088369414 -0.24982698 0.28285798 0.17127338 0.38352075 0.275759
0.27218765 -0.27599323 0.07190659 0.24644318 0.33171886 0.18599713 -0.63172334 0.0758657
-0.26814026 0.23525798 -0.11355165 -0.15359756 0.28549713 0.015704669 0.6578012 0.08136888
-0.53421175 -0.7547115 -0.5834881 -0.6954567 0.10303595 -0.14532259 0.061215024 -0.6069643
0.5225668 -0.34994894 1.1527478 -0.24977687 -0.471801 -0.92090595 0.13728069 -0.9187644
-0.0012944468 -0.041363 -0.1946249 0.07530252 0.064608164 -0.0297362 -0.1770569 0.15957256
0.16945262 -0.032275625 -0.20781037 0.1578825 0.09428852 0.17661062 -0.19216266 1.4577729
-0.40797126 -0.5165049 -0.78973883 -0.06553936 -0.51696163 -0.18861148 -0.01780684 -0.009033081
0.09290157 0.031013928 0.041664276 0.04376133 0.09514462 0.23893446 -0.10354389 0.21435738
-0.065405235 -0.047102973 -0.022645539 -0.19799805 1.3281595 -0.29444602 -0.44175658 -0.8688327

lstm.weight_hh_l0 f4 [20, 5]
00000000: 90d7 c0be 7b90 0e3e 4b0b 5bbf 53a8 72be
00000010: 81f4 1cbe f522 7fbe 652d f83e 614f 7fbf
00000020: 15ca b8be 2c8b d83e 93e7 9b3e 4453 023f
00000030: 67f9 29bf 096a 35bf faed 27be 637f 37bf
00000040: 5043 d63e 6464 10bf b8a4 b6be a2f2 793e
00000050: 6d09 e33c 5ea7 babd 7dc5 bb3e d062 0cbe
00000060: 7fe5 ccbd 1504 463e a4d8 cc3c df94 863f
00000070: 3f7e 80be 3d56 cabc 55a3 d63e ce64 7a3d
00000080: a443 743e 1d75 213f 91e8 2e3e 427e 183f
00000090: c657 2ebe e67f ad3e a5b6 8abe cc13 103e
000000a0: debf 353f ad87 9fbe 76db 613f 3a69 af3d
000000b0: e617 8cbe f024 57bf f1e1 3cbf acb5 1ebf
000000c0: dd04 fb3e cf76 b5be 81ff 1fbf 489c 64be
000000d0: e6fe 523f 343f 2cbf 7648 30bf f360 7ebe
000000e0: 9bab d0be 0082 023f 34b7 29bf a595 31bf
000000f0: db19 2bbf 9b6f 2f3e 73a5 9f3e 04ce 95be
00000100: 51df 1b3e 1925 003f 70b0 27bf 6e0a b3be
00000110: 4f2a 873e 7580 033f dcb3 093f 9278 093f
00000120: a461 263f 61ff 54be 9a05 a8be 0c30 abbe
00000130: af1c 873f 723a 28bf 8c48 94be 04f1 043f
00000140: bc54 1f3c e094 723f 6164 31bf ba4e c4be
00000150: 0198 bb3e 93c1 b83c 5e36 b33e dbd7 35bf
00000160: 2a3a 87be e2be e03e 0fd3 edbd dece 8a3f
00000170: 6a3b d4be 3b71 74bf 3647 193f b8db e3be
00000180: 399e 83ba 0018 c2be de81 e6be 081a 7fbd
-0.3766446 0.13922302 -0.85564107 -0.23697023 -0.15327646 -0.24915679 0.48472133 -0.997305
-0.36091676 0.4229368 0.30450115 0.50908303 -0.6639618 -0.7086492 -0.16399375 -0.7167875
0.4184823 -0.56403184 -0.35672545 0.24408963 0.027714456 -0.09113954 0.3667411 -0.13709569
-0.100047104 0.19337495 0.025005646 1.0514182 -0.25096318 -0.024699325 0.41921487 0.06113129
0.23853928 0.63069326 0.17080905 0.59567654 -0.1702567 0.3388664 -0.27092472 0.14070052
0.7099589 -0.311582 0.88225496 0.08564992 -0.27361983 -0.8404074 -0.7378226 -0.6199596
0.49027148 -0.35442206 -0.62499243 -0.22325242 0.82420194 -0.6728394 -0.68860567 -0.2484167
-0.40755925 0.50979614 -0.6629517 -0.69368964 -0.6683633 0.17132418 0.31180915 -0.2925874
0.15221907 0.50056607 -0.655036 -0.34968895 0.26399466 0.51367885 0.5379007 0.536996
0.6499274 -0.20800544 -0.32816774 -0.33435094 1.0555629 -0.6571418 -0.289616 0.5193026
0.009724792 0.94758415 -0.6929379 -0.38341314 0.36639407 0.02255324 0.35002416 -0.71032494
-0.26411563 0.43895632 -0.11612522 1.0844381 -0.4145158 -0.95485276 0.59874284 -0.4450357
-0.0010041661 -0.37908936 -0.45020956 -0.062280685

lstm.bias_ih_l0 f4 [20]
00000000: 5e3a b83f 39e9 7a3f 1ec1 d43f c8f5 dc3f
00000010: 694c d13e e10e f5be 6dba 9cbe dc3a 1b3e
00000020: 31e5 f4be b996 1e3e cda6 c2be e87f 923e
00000030: bd85 45bd a007 44be 831b 9fbe ab35 fc3f
00000040: 7eb8 fb3f 132f 903f 999a f83f ca23 9f3e
1.4392812 0.9801212 1.6621435 1.7262506 0.4087861 -0.47862914 -0.30610982 0.15159172
-0.4783111 0.15487184 -0.38017884 0.2861321 -0.048223246 -0.19143534 -0.31075677 1.9703878
1.9665678 1.1264366 1.942218 0.31081992

lstm.bias_hh_l0 f4 [20]
00000000: fcf2 e83f 982b ee3f 7fda 903f eaed 843f
00000010: dcfb 1f3f 51c5 73bf 3fd0 81bd 1bb5 c6be
00000020: 0c8a 34bf 459f 9b39 426f d03e 7f51 c4bd
00000030: ce5e b1bd 48a4 603e bbf1 d23e 09e4 d23f
00000040: d512 0340 99b9 e93f 05de e03f a2f4 803f
1.8199153 1.8607054 1.131668 1.0385106 0.6249368 -0.95222956 -0.06338548 -0.38810048
-0.7052314 0.0002968257 0.40709883 -0.09585857 -0.08660661 0.21937668 0.4120005 1.6475841
2.0480244 1.8259765 1.7567755 1.0074656

linear.weight f4 [1, 5]
00000000: 2609 4b40 0947 4c40 c9b6 1640 8c62 58c0
00000010: 2078 19bf
3.1724334 3.1918356 2.3549063 -3.3810148 -0.5994892
